…
2025-03-07 14:28:20,236   INFO  Database filter by min points motorcycle: 8846 => 8055
2025-03-07 14:28:20,237   INFO  Database filter by min points bicycle: 8185 => 7531
2025-03-07 14:28:20,246   INFO  Database filter by min points pedestrian: 161928 => 148520
2025-03-07 14:28:20,251   INFO  Database filter by min points traffic_cone: 62964 => 55504
2025-03-07 14:28:20,298   INFO  Loading NuScenes dataset
2025-03-07 14:28:22,325   INFO  Total samples for NuScenes dataset: 28130
2025-03-07 14:28:22,672   INFO  DistributedDataParallel(
  (module): TransFusion(
    (vfe): DynamicVoxelVFE(
      (pfn_layers): ModuleList(
        (0): PFNLayerV2(
          (linear): Linear(in_features=11, out_features=64, bias=False)
          (norm): SyncBatchNorm(64, eps=0.001, momentum=0.01, affine=True, track_running_stats=True)
          (relu): ReLU()
        )
        (1): PFNLayerV2(
          (linear): Linear(in_features=128, out_features=128, bias=False)
          (norm): SyncBatchNorm(128, eps=0.001, momentum=0.01, affine=True, track_running_stats=True)
          (relu): ReLU()
        )
      )
    )
    (backbone_3d): LION3DBackboneOneStride(
      (linear_1): LIONBlock(
        (encoder): ModuleList(
          (0-1): 2 x LIONLayer(
            (blocks): ModuleList(
              (0-1): 2 x Block(
                (mamba): Mamba(
                  (in_proj): Linear(in_features=128, out_features=512, bias=False)
                  (conv1d): Conv1d(256, 256, kernel_size=(4,), stride=(1,), padding=(3,), groups=256)
                  (act): SiLU()
                  (x_proj): Linear(in_features=256, out_features=40, bias=False)
                  (dt_proj): Linear(in_features=8, out_features=256, bias=True)
                  (conv1d_b): Conv1d(256, 256, kernel_size=(4,), stride=(1,), padding=(3,), groups=256)
                  (x_proj_b): Linear(in_features=256, out_features=40, bias=False)
                  (dt_proj_b): Linear(in_features=8, out_features=256, bias=True)
                  (out_proj): Linear(in_features=256, out_features=128, bias=False)
                )
                (norm): LayerNorm((128,), eps=1e-05, elementwise_affine=True)
                (drop_path): timm.DropPath(0.2)
              )
            )
            (window_partition): FlattenedWindowMapping()
          )
        )
        (downsample_list): ModuleList(
          (0-1): 2 x PatchMerging3D(
            (sub_conv): SparseSequential(
              (0): SubMConv3d(128, 128, kernel_size=[3, 3, 3], stride=[1, 1, 1], padding=[0, 0, 0], dilation=[1, 1, 1], output_padding=[0, 0, 0], bias=False, algo=ConvAlgo.MaskImplicitGemm)
              (1): LayerNorm((128,), eps=1e-05, elementwise_affine=True)
              (2): GELU(approximate='none')
            )
            (norm): LayerNorm((128,), eps=1e-05, elementwise_affine=True)
            (sigmoid): Sigmoid()
          )
        )
        (pos_emb_list): ModuleList(
          (0-1): 2 x PositionEmbeddingLearned(
            (position_embedding_head): Sequential(
              (0): Linear(in_features=3, out_features=128, bias=True)
              (1): SyncBatchNorm(128, eps=1e-05, momentum=0.1, affine=True, track_running_stats=True)
              (2): ReLU(inplace=True)
              (3): Linear(in_features=128, out_features=128, bias=True)
            )
          )
        )
        (decoder): ModuleList(
          (0-1): 2 x LIONLayer(
            (blocks): ModuleList(
              (0-1): 2 x Block(
                (mamba): Mamba(
                  (in_proj): Linear(in_features=128, out_features=512, bias=False)
                  (conv1d): Conv1d(256, 256, kernel_size=(4,), stride=(1,), padding=(3,), groups=256)
                  (act): SiLU()
                  (x_proj): Linear(in_features=256, out_features=40, bias=False)
                  (dt_proj): Linear(in_features=8, out_features=256, bias=True)
                  (conv1d_b): Conv1d(256, 256, kernel_size=(4,), stride=(1,), padding=(3,), groups=256)
                  (x_proj_b): Linear(in_features=256, out_features=40, bias=False)
                  (dt_proj_b): Linear(in_features=8, out_features=256, bias=True)
                  (out_proj): Linear(in_features=256, out_features=128, bias=False)
                )
                (norm): LayerNorm((128,), eps=1e-05, elementwise_affine=True)
                (drop_path): timm.DropPath(0.2)
              )
            )
            (window_partition): FlattenedWindowMapping()
          )
        )
        (decoder_norm): ModuleList(
          (0-1): 2 x LayerNorm((128,), eps=1e-05, elementwise_affine=True)
        )
        (upsample_list): ModuleList(
          (0-1): 2 x PatchExpanding3D()
        )
      )
      (dow1): PatchMerging3D(
        (sub_conv): SparseSequential(
          (0): SubMConv3d(128, 128, kernel_size=[3, 3, 3], stride=[1, 1, 1], padding=[0, 0, 0], dilation=[1, 1, 1], output_padding=[0, 0, 0], bias=False, algo=ConvAlgo.MaskImplicitGemm)
          (1): LayerNorm((128,), eps=1e-05, elementwise_affine=True)
          (2): GELU(approximate='none')
        )
        (norm): LayerNorm((128,), eps=1e-05, elementwise_affine=True)
        (sigmoid): Sigmoid()
      )
      (linear_2): LIONBlock(
        (encoder): ModuleList(
          (0-1): 2 x LIONLayer(
            (blocks): ModuleList(
              (0-1): 2 x Block(
                (mamba): Mamba(
                  (in_proj): Linear(in_features=128, out_features=512, bias=False)
                  (conv1d): Conv1d(256, 256, kernel_size=(4,), stride=(1,), padding=(3,), groups=256)
                  (act): SiLU()
                  (x_proj): Linear(in_features=256, out_features=40, bias=False)
                  (dt_proj): Linear(in_features=8, out_features=256, bias=True)
                  (conv1d_b): Conv1d(256, 256, kernel_size=(4,), stride=(1,), padding=(3,), groups=256)
                  (x_proj_b): Linear(in_features=256, out_features=40, bias=False)
                  (dt_proj_b): Linear(in_features=8, out_features=256, bias=True)
                  (out_proj): Linear(in_features=256, out_features=128, bias=False)
                )
                (norm): LayerNorm((128,), eps=1e-05, elementwise_affine=True)
                (drop_path): timm.DropPath(0.2)
              )
            )
            (window_partition): FlattenedWindowMapping()
          )
        )
        (downsample_list): ModuleList(
          (0-1): 2 x PatchMerging3D(
            (sub_conv): SparseSequential(
              (0): SubMConv3d(128, 128, kernel_size=[3, 3, 3], stride=[1, 1, 1], padding=[0, 0, 0], dilation=[1, 1, 1], output_padding=[0, 0, 0], bias=False, algo=ConvAlgo.MaskImplicitGemm)
              (1): LayerNorm((128,), eps=1e-05, elementwise_affine=True)
              (2): GELU(approximate='none')
            )
            (norm): LayerNorm((128,), eps=1e-05, elementwise_affine=True)
            (sigmoid): Sigmoid()
          )
        )
        (pos_emb_list): ModuleList(
          (0-1): 2 x PositionEmbeddingLearned(
            (position_embedding_head): Sequential(
              (0): Linear(in_features=3, out_features=128, bias=True)
              (1): SyncBatchNorm(128, eps=1e-05, momentum=0.1, affine=True, track_running_stats=True)
              (2): ReLU(inplace=True)
              (3): Linear(in_features=128, out_features=128, bias=True)
            )
          )
        )
        (decoder): ModuleList(
          (0-1): 2 x LIONLayer(
            (blocks): ModuleList(
              (0-1): 2 x Block(
                (mamba): Mamba(
                  (in_proj): Linear(in_features=128, out_features=512, bias=False)
                  (conv1d): Conv1d(256, 256, kernel_size=(4,), stride=(1,), padding=(3,), groups=256)
                  (act): SiLU()
                  (x_proj): Linear(in_features=256, out_features=40, bias=False)
                  (dt_proj): Linear(in_features=8, out_features=256, bias=True)
                  (conv1d_b): Conv1d(256, 256, kernel_size=(4,), stride=(1,), padding=(3,), groups=256)
                  (x_proj_b): Linear(in_features=256, out_features=40, bias=False)
                  (dt_proj_b): Linear(in_features=8, out_features=256, bias=True)
                  (out_proj): Linear(in_features=256, out_features=128, bias=False)
                )
                (norm): LayerNorm((128,), eps=1e-05, elementwise_affine=True)
                (drop_path): timm.DropPath(0.2)
              )
            )
            (window_partition): FlattenedWindowMapping()
          )
        )
        (decoder_norm): ModuleList(
          (0-1): 2 x LayerNorm((128,), eps=1e-05, elementwise_affine=True)
        )
        (upsample_list): ModuleList(
          (0-1): 2 x PatchExpanding3D()
        )
      )
      (dow2): PatchMerging3D(
        (sub_conv): SparseSequential(
          (0): SubMConv3d(128, 128, kernel_size=[3, 3, 3], stride=[1, 1, 1], padding=[0, 0, 0], dilation=[1, 1, 1], output_padding=[0, 0, 0], bias=False, algo=ConvAlgo.MaskImplicitGemm)
          (1): LayerNorm((128,), eps=1e-05, elementwise_affine=True)
          (2): GELU(approximate='none')
        )
        (norm): LayerNorm((128,), eps=1e-05, elementwise_affine=True)
        (sigmoid): Sigmoid()
      )
      (linear_3): LIONBlock(
        (encoder): ModuleList(
          (0-1): 2 x LIONLayer(
            (blocks): ModuleList(
              (0-1): 2 x Block(
                (mamba): Mamba(
                  (in_proj): Linear(in_features=128, out_features=512, bias=False)
                  (conv1d): Conv1d(256, 256, kernel_size=(4,), stride=(1,), padding=(3,), groups=256)
                  (act): SiLU()
                  (x_proj): Linear(in_features=256, out_features=40, bias=False)
                  (dt_proj): Linear(in_features=8, out_features=256, bias=True)
                  (conv1d_b): Conv1d(256, 256, kernel_size=(4,), stride=(1,), padding=(3,), groups=256)
                  (x_proj_b): Linear(in_features=256, out_features=40, bias=False)
                  (dt_proj_b): Linear(in_features=8, out_features=256, bias=True)
                  (out_proj): Linear(in_features=256, out_features=128, bias=False)
                )
                (norm): LayerNorm((128,), eps=1e-05, elementwise_affine=True)
                (drop_path): timm.DropPath(0.2)
              )
            )
            (window_partition): FlattenedWindowMapping()
          )
        )
        (downsample_list): ModuleList(
          (0-1): 2 x PatchMerging3D(
            (sub_conv): SparseSequential(
              (0): SubMConv3d(128, 128, kernel_size=[3, 3, 3], stride=[1, 1, 1], padding=[0, 0, 0], dilation=[1, 1, 1], output_padding=[0, 0, 0], bias=False, algo=ConvAlgo.MaskImplicitGemm)
              (1): LayerNorm((128,), eps=1e-05, elementwise_affine=True)
              (2): GELU(approximate='none')
            )
            (norm): LayerNorm((128,), eps=1e-05, elementwise_affine=True)
            (sigmoid): Sigmoid()
          )
        )
        (pos_emb_list): ModuleList(
          (0-1): 2 x PositionEmbeddingLearned(
            (position_embedding_head): Sequential(
              (0): Linear(in_features=3, out_features=128, bias=True)
              (1): SyncBatchNorm(128, eps=1e-05, momentum=0.1, affine=True, track_running_stats=True)
              (2): ReLU(inplace=True)
              (3): Linear(in_features=128, out_features=128, bias=True)
            )
          )
        )
        (decoder): ModuleList(
          (0-1): 2 x LIONLayer(
            (blocks): ModuleList(
              (0-1): 2 x Block(
                (mamba): Mamba(
                  (in_proj): Linear(in_features=128, out_features=512, bias=False)
                  (conv1d): Conv1d(256, 256, kernel_size=(4,), stride=(1,), padding=(3,), groups=256)
                  (act): SiLU()
                  (x_proj): Linear(in_features=256, out_features=40, bias=False)
                  (dt_proj): Linear(in_features=8, out_features=256, bias=True)
                  (conv1d_b): Conv1d(256, 256, kernel_size=(4,), stride=(1,), padding=(3,), groups=256)
                  (x_proj_b): Linear(in_features=256, out_features=40, bias=False)
                  (dt_proj_b): Linear(in_features=8, out_features=256, bias=True)
                  (out_proj): Linear(in_features=256, out_features=128, bias=False)
                )
                (norm): LayerNorm((128,), eps=1e-05, elementwise_affine=True)
                (drop_path): timm.DropPath(0.2)
              )
            )
            (window_partition): FlattenedWindowMapping()
          )
        )
        (decoder_norm): ModuleList(
          (0-1): 2 x LayerNorm((128,), eps=1e-05, elementwise_affine=True)
        )
        (upsample_list): ModuleList(
          (0-1): 2 x PatchExpanding3D()
        )
      )
      (dow3): PatchMerging3D(
        (sub_conv): SparseSequential(
          (0): SubMConv3d(128, 128, kernel_size=[3, 3, 3], stride=[1, 1, 1], padding=[0, 0, 0], dilation=[1, 1, 1], output_padding=[0, 0, 0], bias=False, algo=ConvAlgo.MaskImplicitGemm)
          (1): LayerNorm((128,), eps=1e-05, elementwise_affine=True)
          (2): GELU(approximate='none')
        )
        (norm): LayerNorm((128,), eps=1e-05, elementwise_affine=True)
        (sigmoid): Sigmoid()
      )
      (linear_4): LIONBlock(
        (encoder): ModuleList(
          (0-1): 2 x LIONLayer(
            (blocks): ModuleList(
              (0-1): 2 x Block(
                (mamba): Mamba(
                  (in_proj): Linear(in_features=128, out_features=512, bias=False)
                  (conv1d): Conv1d(256, 256, kernel_size=(4,), stride=(1,), padding=(3,), groups=256)
                  (act): SiLU()
                  (x_proj): Linear(in_features=256, out_features=40, bias=False)
                  (dt_proj): Linear(in_features=8, out_features=256, bias=True)
                  (conv1d_b): Conv1d(256, 256, kernel_size=(4,), stride=(1,), padding=(3,), groups=256)
                  (x_proj_b): Linear(in_features=256, out_features=40, bias=False)
                  (dt_proj_b): Linear(in_features=8, out_features=256, bias=True)
                  (out_proj): Linear(in_features=256, out_features=128, bias=False)
                )
                (norm): LayerNorm((128,), eps=1e-05, elementwise_affine=True)
                (drop_path): timm.DropPath(0.2)
              )
            )
            (window_partition): FlattenedWindowMapping()
          )
        )
        (downsample_list): ModuleList(
          (0-1): 2 x PatchMerging3D(
            (sub_conv): SparseSequential(
              (0): SubMConv3d(128, 128, kernel_size=[3, 3, 3], stride=[1, 1, 1], padding=[0, 0, 0], dilation=[1, 1, 1], output_padding=[0, 0, 0], bias=False, algo=ConvAlgo.MaskImplicitGemm)
              (1): LayerNorm((128,), eps=1e-05, elementwise_affine=True)
              (2): GELU(approximate='none')
            )
            (norm): LayerNorm((128,), eps=1e-05, elementwise_affine=True)
            (sigmoid): Sigmoid()
          )
        )
        (pos_emb_list): ModuleList(
          (0-1): 2 x PositionEmbeddingLearned(
            (position_embedding_head): Sequential(
              (0): Linear(in_features=3, out_features=128, bias=True)
              (1): SyncBatchNorm(128, eps=1e-05, momentum=0.1, affine=True, track_running_stats=True)
              (2): ReLU(inplace=True)
              (3): Linear(in_features=128, out_features=128, bias=True)
            )
          )
        )
        (decoder): ModuleList(
          (0-1): 2 x LIONLayer(
            (blocks): ModuleList(
              (0-1): 2 x Block(
                (mamba): Mamba(
                  (in_proj): Linear(in_features=128, out_features=512, bias=False)
                  (conv1d): Conv1d(256, 256, kernel_size=(4,), stride=(1,), padding=(3,), groups=256)
                  (act): SiLU()
                  (x_proj): Linear(in_features=256, out_features=40, bias=False)
                  (dt_proj): Linear(in_features=8, out_features=256, bias=True)
                  (conv1d_b): Conv1d(256, 256, kernel_size=(4,), stride=(1,), padding=(3,), groups=256)
                  (x_proj_b): Linear(in_features=256, out_features=40, bias=False)
                  (dt_proj_b): Linear(in_features=8, out_features=256, bias=True)
                  (out_proj): Linear(in_features=256, out_features=128, bias=False)
                )
                (norm): LayerNorm((128,), eps=1e-05, elementwise_affine=True)
                (drop_path): timm.DropPath(0.2)
              )
            )
            (window_partition): FlattenedWindowMapping()
          )
        )
        (decoder_norm): ModuleList(
          (0-1): 2 x LayerNorm((128,), eps=1e-05, elementwise_affine=True)
        )
        (upsample_list): ModuleList(
          (0-1): 2 x PatchExpanding3D()
        )
      )
      (dow4): PatchMerging3D(
        (sub_conv): SparseSequential(
          (0): SubMConv3d(128, 128, kernel_size=[3, 3, 3], stride=[1, 1, 1], padding=[0, 0, 0], dilation=[1, 1, 1], output_padding=[0, 0, 0], bias=False, algo=ConvAlgo.MaskImplicitGemm)
          (1): LayerNorm((128,), eps=1e-05, elementwise_affine=True)
          (2): GELU(approximate='none')
        )
        (norm): LayerNorm((128,), eps=1e-05, elementwise_affine=True)
        (sigmoid): Sigmoid()
      )
      (linear_out): LIONLayer(
        (blocks): ModuleList(
          (0-1): 2 x Block(
            (mamba): Mamba(
              (in_proj): Linear(in_features=128, out_features=512, bias=False)
              (conv1d): Conv1d(256, 256, kernel_size=(4,), stride=(1,), padding=(3,), groups=256)
              (act): SiLU()
              (x_proj): Linear(in_features=256, out_features=40, bias=False)
              (dt_proj): Linear(in_features=8, out_features=256, bias=True)
              (conv1d_b): Conv1d(256, 256, kernel_size=(4,), stride=(1,), padding=(3,), groups=256)
              (x_proj_b): Linear(in_features=256, out_features=40, bias=False)
              (dt_proj_b): Linear(in_features=8, out_features=256, bias=True)
              (out_proj): Linear(in_features=256, out_features=128, bias=False)
            )
            (norm): LayerNorm((128,), eps=1e-05, elementwise_affine=True)
            (drop_path): timm.DropPath(0.2)
          )
        )
        (window_partition): FlattenedWindowMapping()
      )
    )
    (map_to_bev_module): HeightCompression()
    (pfe): None
    (backbone_2d): BaseBEVResBackbone(
      (blocks): ModuleList(
        (0): Sequential(
          (0): BasicBlock(
            (conv1): Conv2d(256, 128, kernel_size=(3, 3), stride=(1, 1), padding=(1, 1), bias=False)
            (bn1): SyncBatchNorm(128, eps=0.001, momentum=0.01, affine=True, track_running_stats=True)
            (relu1): ReLU()
            (conv2): Conv2d(128, 128, kernel_size=(3, 3), stride=(1, 1), padding=(1, 1), bias=False)
            (bn2): SyncBatchNorm(128, eps=0.001, momentum=0.01, affine=True, track_running_stats=True)
            (relu2): ReLU()
            (downsample_layer): Sequential(
              (0): Conv2d(256, 128, kernel_size=(1, 1), stride=(1, 1), bias=False)
              (1): SyncBatchNorm(128, eps=0.001, momentum=0.01, affine=True, track_running_stats=True)
            )
          )
          (1): BasicBlock(
            (conv1): Conv2d(128, 128, kernel_size=(3, 3), stride=(1, 1), padding=(1, 1), bias=False)
            (bn1): SyncBatchNorm(128, eps=0.001, momentum=0.01, affine=True, track_running_stats=True)
            (relu1): ReLU()
            (conv2): Conv2d(128, 128, kernel_size=(3, 3), stride=(1, 1), padding=(1, 1), bias=False)
            (bn2): SyncBatchNorm(128, eps=0.001, momentum=0.01, affine=True, track_running_stats=True)
            (relu2): ReLU()
          )
        )
        (1): Sequential(
          (0): BasicBlock(
            (conv1): Conv2d(128, 128, kernel_size=(3, 3), stride=(2, 2), padding=(1, 1), bias=False)
            (bn1): SyncBatchNorm(128, eps=0.001, momentum=0.01, affine=True, track_running_stats=True)
            (relu1): ReLU()
            (conv2): Conv2d(128, 128, kernel_size=(3, 3), stride=(1, 1), padding=(1, 1), bias=False)
            (bn2): SyncBatchNorm(128, eps=0.001, momentum=0.01, affine=True, track_running_stats=True)
            (relu2): ReLU()
            (downsample_layer): Sequential(
              (0): Conv2d(128, 128, kernel_size=(1, 1), stride=(2, 2), bias=False)
              (1): SyncBatchNorm(128, eps=0.001, momentum=0.01, affine=True, track_running_stats=True)
            )
          )
          (1): BasicBlock(
            (conv1): Conv2d(128, 128, kernel_size=(3, 3), stride=(1, 1), padding=(1, 1), bias=False)
            (bn1): SyncBatchNorm(128, eps=0.001, momentum=0.01, affine=True, track_running_stats=True)
            (relu1): ReLU()
            (conv2): Conv2d(128, 128, kernel_size=(3, 3), stride=(1, 1), padding=(1, 1), bias=False)
            (bn2): SyncBatchNorm(128, eps=0.001, momentum=0.01, affine=True, track_running_stats=True)
            (relu2): ReLU()
          )
          (2): BasicBlock(
            (conv1): Conv2d(128, 128, kernel_size=(3, 3), stride=(1, 1), padding=(1, 1), bias=False)
            (bn1): SyncBatchNorm(128, eps=0.001, momentum=0.01, affine=True, track_running_stats=True)
            (relu1): ReLU()
            (conv2): Conv2d(128, 128, kernel_size=(3, 3), stride=(1, 1), padding=(1, 1), bias=False)
            (bn2): SyncBatchNorm(128, eps=0.001, momentum=0.01, affine=True, track_running_stats=True)
            (relu2): ReLU()
          )
        )
        (2): Sequential(
          (0): BasicBlock(
            (conv1): Conv2d(128, 256, kernel_size=(3, 3), stride=(2, 2), padding=(1, 1), bias=False)
            (bn1): SyncBatchNorm(256, eps=0.001, momentum=0.01, affine=True, track_running_stats=True)
            (relu1): ReLU()
            (conv2): Conv2d(256, 256, kernel_size=(3, 3), stride=(1, 1), padding=(1, 1), bias=False)
            (bn2): SyncBatchNorm(256, eps=0.001, momentum=0.01, affine=True, track_running_stats=True)
            (relu2): ReLU()
            (downsample_layer): Sequential(
              (0): Conv2d(128, 256, kernel_size=(1, 1), stride=(2, 2), bias=False)
              (1): SyncBatchNorm(256, eps=0.001, momentum=0.01, affine=True, track_running_stats=True)
            )
          )
          (1): BasicBlock(
            (conv1): Conv2d(256, 256, kernel_size=(3, 3), stride=(1, 1), padding=(1, 1), bias=False)
            (bn1): SyncBatchNorm(256, eps=0.001, momentum=0.01, affine=True, track_running_stats=True)
            (relu1): ReLU()
            (conv2): Conv2d(256, 256, kernel_size=(3, 3), stride=(1, 1), padding=(1, 1), bias=False)
            (bn2): SyncBatchNorm(256, eps=0.001, momentum=0.01, affine=True, track_running_stats=True)
            (relu2): ReLU()
          )
          (2): BasicBlock(
            (conv1): Conv2d(256, 256, kernel_size=(3, 3), stride=(1, 1), padding=(1, 1), bias=False)
            (bn1): SyncBatchNorm(256, eps=0.001, momentum=0.01, affine=True, track_running_stats=True)
            (relu1): ReLU()
            (conv2): Conv2d(256, 256, kernel_size=(3, 3), stride=(1, 1), padding=(1, 1), bias=False)
            (bn2): SyncBatchNorm(256, eps=0.001, momentum=0.01, affine=True, track_running_stats=True)
            (relu2): ReLU()
          )
        )
      )
      (deblocks): ModuleList(
        (0): Sequential(
          (0): Conv2d(128, 128, kernel_size=(2, 2), stride=(2, 2), bias=False)
          (1): SyncBatchNorm(128, eps=0.001, momentum=0.01, affine=True, track_running_stats=True)
          (2): ReLU()
        )
        (1): Sequential(
          (0): ConvTranspose2d(128, 128, kernel_size=(1, 1), stride=(1, 1), bias=False)
          (1): SyncBatchNorm(128, eps=0.001, momentum=0.01, affine=True, track_running_stats=True)
          (2): ReLU()
        )
        (2): Sequential(
          (0): ConvTranspose2d(256, 128, kernel_size=(2, 2), stride=(2, 2), bias=False)
          (1): SyncBatchNorm(128, eps=0.001, momentum=0.01, affine=True, track_running_stats=True)
          (2): ReLU()
        )
      )
    )
    (dense_head): TransFusionHead(
      (loss_cls): SigmoidFocalClassificationLoss()
      (loss_bbox): L1Loss()
      (loss_heatmap): GaussianFocalLoss()
      (shared_conv): Conv2d(384, 128, kernel_size=(3, 3), stride=(1, 1), padding=(1, 1))
      (heatmap_head): Sequential(
        (0): BasicBlock2D(
          (conv): Conv2d(128, 128, kernel_size=(3, 3), stride=(1, 1), padding=(1, 1))
          (bn): SyncBatchNorm(128, eps=1e-05, momentum=0.1, affine=True, track_running_stats=True)
          (relu): ReLU(inplace=True)
        )
        (1): Conv2d(128, 10, kernel_size=(3, 3), stride=(1, 1), padding=(1, 1))
      )
      (class_encoding): Conv1d(10, 128, kernel_size=(1,), stride=(1,))
      (decoder): TransformerDecoderLayer(
        (self_attn): MultiheadAttention(
          (out_proj): NonDynamicallyQuantizableLinear(in_features=128, out_features=128, bias=True)
        )
        (multihead_attn): MultiheadAttention(
          (out_proj): NonDynamicallyQuantizableLinear(in_features=128, out_features=128, bias=True)
        )
        (linear1): Linear(in_features=128, out_features=256, bias=True)
        (dropout): Dropout(p=0, inplace=False)
        (linear2): Linear(in_features=256, out_features=128, bias=True)
        (norm1): LayerNorm((128,), eps=1e-05, elementwise_affine=True)
        (norm2): LayerNorm((128,), eps=1e-05, elementwise_affine=True)
        (norm3): LayerNorm((128,), eps=1e-05, elementwise_affine=True)
        (dropout1): Dropout(p=0, inplace=False)
        (dropout2): Dropout(p=0, inplace=False)
        (dropout3): Dropout(p=0, inplace=False)
        (self_posembed): PositionEmbeddingLearned(
          (position_embedding_head): Sequential(
            (0): Conv1d(2, 128, kernel_size=(1,), stride=(1,))
            (1): SyncBatchNorm(128, eps=1e-05, momentum=0.1, affine=True, track_running_stats=True)
            (2): ReLU(inplace=True)
            (3): Conv1d(128, 128, kernel_size=(1,), stride=(1,))
          )
        )
        (cross_posembed): PositionEmbeddingLearned(
          (position_embedding_head): Sequential(
            (0): Conv1d(2, 128, kernel_size=(1,), stride=(1,))
            (1): SyncBatchNorm(128, eps=1e-05, momentum=0.1, affine=True, track_running_stats=True)
            (2): ReLU(inplace=True)
            (3): Conv1d(128, 128, kernel_size=(1,), stride=(1,))
          )
        )
      )
      (prediction_head): SeparateHead_Transfusion(
        (center): Sequential(
          (0): Sequential(
            (0): Conv1d(128, 64, kernel_size=(1,), stride=(1,))
            (1): SyncBatchNorm(64, eps=1e-05, momentum=0.1, affine=True, track_running_stats=True)
            (2): ReLU()
          )
          (1): Conv1d(64, 2, kernel_size=(1,), stride=(1,))
        )
        (height): Sequential(
          (0): Sequential(
            (0): Conv1d(128, 64, kernel_size=(1,), stride=(1,))
            (1): SyncBatchNorm(64, eps=1e-05, momentum=0.1, affine=True, track_running_stats=True)
            (2): ReLU()
          )
          (1): Conv1d(64, 1, kernel_size=(1,), stride=(1,))
        )
        (dim): Sequential(
          (0): Sequential(
            (0): Conv1d(128, 64, kernel_size=(1,), stride=(1,))
            (1): SyncBatchNorm(64, eps=1e-05, momentum=0.1, affine=True, track_running_stats=True)
            (2): ReLU()
          )
          (1): Conv1d(64, 3, kernel_size=(1,), stride=(1,))
        )
        (rot): Sequential(
          (0): Sequential(
            (0): Conv1d(128, 64, kernel_size=(1,), stride=(1,))
            (1): SyncBatchNorm(64, eps=1e-05, momentum=0.1, affine=True, track_running_stats=True)
            (2): ReLU()
          )
          (1): Conv1d(64, 2, kernel_size=(1,), stride=(1,))
        )
        (vel): Sequential(
          (0): Sequential(
            (0): Conv1d(128, 64, kernel_size=(1,), stride=(1,))
            (1): SyncBatchNorm(64, eps=1e-05, momentum=0.1, affine=True, track_running_stats=True)
            (2): ReLU()
          )
          (1): Conv1d(64, 2, kernel_size=(1,), stride=(1,))
        )
        (iou): Sequential(
          (0): Sequential(
            (0): Conv1d(128, 64, kernel_size=(1,), stride=(1,))
            (1): SyncBatchNorm(64, eps=1e-05, momentum=0.1, affine=True, track_running_stats=True)
            (2): ReLU()
          )
          (1): Conv1d(64, 1, kernel_size=(1,), stride=(1,))
        )
        (heatmap): Sequential(
          (0): Sequential(
            (0): Conv1d(128, 64, kernel_size=(1,), stride=(1,))
            (1): SyncBatchNorm(64, eps=1e-05, momentum=0.1, affine=True, track_running_stats=True)
            (2): ReLU()
          )
          (1): Conv1d(64, 10, kernel_size=(1,), stride=(1,))
        )
      )
    )
    (point_head): None
    (roi_head): None
  )
)
2025-03-07 14:28:22,676   INFO  Total number of parameters: 16124127
2025-03-07 14:28:22,676   INFO  **********************Start training cfgs/lion_models/lion(lion_bs2_lr75_1_14)**********************
2025-03-07 14:28:50,010   INFO  epoch: 0/36, acc_iter=50, cur_iter=49/14065, batch_size=1, time_cost(epoch): 00:27/2:06:42, time_cost(all): 00:27/76:16:55, loss=457.8044905090332, d_time=0.00(0.03), f_time=0.44(0.51), b_time=0.44(0.54), norm=374.9206848144531, lr=7.500009748352134e-05
…
